…
2018-11-16 18:15:18.322776: I tensorflow/core/common_runtime/gpu/gpu_device.cc:988]      0 
2018-11-16 18:15:18.322784: I tensorflow/core/common_runtime/gpu/gpu_device.cc:1001] 0:   N 
2018-11-16 18:15:18.323120: I tensorflow/core/common_runtime/gpu/gpu_device.cc:1115] Created TensorFlow device (/job:localhost/replica:0/task:0/device:GPU:0 with 10757 MB memory) -> physical GPU (device: 0, name: Tesla K80, pci bus id: 0000:da:00.0, compute capability: 3.7)
_________________________________________________________________
Layer (type)                 Output Shape              Param #   
=================================================================
resnet50 (Model)             (None, 7, 7, 2048)        23587712  
_________________________________________________________________
flatten_1 (Flatten)          (None, 100352)            0         
_________________________________________________________________
activation_50 (Activation)   (None, 100352)            0         
_________________________________________________________________
dropout_1 (Dropout)          (None, 100352)            0         
_________________________________________________________________
dense_1 (Dense)              (None, 1024)              102761472 
_________________________________________________________________
activation_51 (Activation)   (None, 1024)              0         
_________________________________________________________________
dropout_2 (Dropout)          (None, 1024)              0         
_________________________________________________________________
dense_2 (Dense)              (None, 28)                28700     
_________________________________________________________________
activation_52 (Activation)   (None, 28)                0         
=================================================================
Total params: 126,377,884
Trainable params: 126,324,764
Non-trainable params: 53,120
_________________________________________________________________
Epoch 1/1000

  1/100 [..............................] - ETA: 33:15 - loss: 5.7184 - acc: 0.0000e+00
  2/100 [..............................] - ETA: 17:02 - loss: 5.6940 - acc: 0.0312    
…
