…
2018-11-16 22:09:22.799690: W tensorflow/core/common_runtime/bfc_allocator.cc:211] Allocator (GPU_0_bfc) ran out of memory trying to allocate 2.13GiB. The caller indicates that this is not a failure, but may mean that there could be performance gains if more memory were available.
2018-11-16 22:09:22.808434: W tensorflow/core/common_runtime/bfc_allocator.cc:211] Allocator (GPU_0_bfc) ran out of memory trying to allocate 2.16GiB. The caller indicates that this is not a failure, but may mean that there could be performance gains if more memory were available.
_________________________________________________________________
Layer (type)                 Output Shape              Param #   
=================================================================
resnet50 (Model)             (None, 10, 10, 2048)      23587712  
_________________________________________________________________
flatten_1 (Flatten)          (None, 204800)            0         
_________________________________________________________________
activation_50 (Activation)   (None, 204800)            0         
_________________________________________________________________
dropout_1 (Dropout)          (None, 204800)            0         
_________________________________________________________________
dense_1 (Dense)              (None, 1024)              209716224 
_________________________________________________________________
activation_51 (Activation)   (None, 1024)              0         
_________________________________________________________________
dropout_2 (Dropout)          (None, 1024)              0         
_________________________________________________________________
dense_2 (Dense)              (None, 28)                28700     
_________________________________________________________________
activation_52 (Activation)   (None, 28)                0         
=================================================================
Total params: 233,332,636
Trainable params: 233,279,516
Non-trainable params: 53,120
_________________________________________________________________
Epoch 1/1000

  1/100 [..............................] - ETA: 42:53 - loss: 5.1123 - acc: 0.0625
  2/100 [..............................] - ETA: 22:11 - loss: 5.7461 - acc: 0.0938
…
