…
2018-11-22 11:20:26.782870: I tensorflow/stream_executor/cuda/cuda_diagnostics.cc:194] libcuda reported version is: 387.26.0
2018-11-22 11:20:26.782912: I tensorflow/stream_executor/cuda/cuda_diagnostics.cc:198] kernel reported version is: 387.26.0
2018-11-22 11:20:26.782920: I tensorflow/stream_executor/cuda/cuda_diagnostics.cc:305] kernel version seems to match DSO: 387.26.0
__________________________________________________________________________________________________
Layer (type)                    Output Shape         Param #     Connected to                     
==================================================================================================
input_1 (InputLayer)            (None, 512, 512, 4)  0                                            
__________________________________________________________________________________________________
batch_normalization_1 (BatchNor (None, 512, 512, 4)  16          input_1[0][0]                    
__________________________________________________________________________________________________
conv2d_1 (Conv2D)               (None, 510, 510, 32) 1184        batch_normalization_1[0][0]      
__________________________________________________________________________________________________
re_lu_1 (ReLU)                  (None, 510, 510, 32) 0           conv2d_1[0][0]                   
__________________________________________________________________________________________________
batch_normalization_2 (BatchNor (None, 510, 510, 32) 128         re_lu_1[0][0]                    
__________________________________________________________________________________________________
max_pooling2d_1 (MaxPooling2D)  (None, 255, 255, 32) 0           batch_normalization_2[0][0]      
__________________________________________________________________________________________________
dropout_1 (Dropout)             (None, 255, 255, 32) 0           max_pooling2d_1[0][0]            
__________________________________________________________________________________________________
batch_normalization_3 (BatchNor (None, 255, 255, 32) 128         dropout_1[0][0]                  
__________________________________________________________________________________________________
conv2d_2 (Conv2D)               (None, 127, 127, 64) 18496       batch_normalization_3[0][0]      
__________________________________________________________________________________________________
re_lu_2 (ReLU)                  (None, 127, 127, 64) 0           conv2d_2[0][0]                   
__________________________________________________________________________________________________
batch_normalization_4 (BatchNor (None, 127, 127, 64) 256         re_lu_2[0][0]                    
__________________________________________________________________________________________________
conv2d_3 (Conv2D)               (None, 125, 125, 64) 36928       batch_normalization_4[0][0]      
__________________________________________________________________________________________________
re_lu_3 (ReLU)                  (None, 125, 125, 64) 0           conv2d_3[0][0]                   
__________________________________________________________________________________________________
batch_normalization_5 (BatchNor (None, 125, 125, 64) 256         re_lu_3[0][0]                    
__________________________________________________________________________________________________
conv2d_4 (Conv2D)               (None, 123, 123, 64) 36928       batch_normalization_5[0][0]      
__________________________________________________________________________________________________
re_lu_4 (ReLU)                  (None, 123, 123, 64) 0           conv2d_4[0][0]                   
__________________________________________________________________________________________________
batch_normalization_6 (BatchNor (None, 123, 123, 64) 256         re_lu_4[0][0]                    
__________________________________________________________________________________________________
max_pooling2d_2 (MaxPooling2D)  (None, 61, 61, 64)   0           batch_normalization_6[0][0]      
__________________________________________________________________________________________________
dropout_2 (Dropout)             (None, 61, 61, 64)   0           max_pooling2d_2[0][0]            
__________________________________________________________________________________________________
batch_normalization_7 (BatchNor (None, 61, 61, 64)   256         dropout_2[0][0]                  
__________________________________________________________________________________________________
conv2d_5 (Conv2D)               (None, 59, 59, 128)  73856       batch_normalization_7[0][0]      
__________________________________________________________________________________________________
re_lu_5 (ReLU)                  (None, 59, 59, 128)  0           conv2d_5[0][0]                   
__________________________________________________________________________________________________
batch_normalization_8 (BatchNor (None, 59, 59, 128)  512         re_lu_5[0][0]                    
__________________________________________________________________________________________________
conv2d_6 (Conv2D)               (None, 57, 57, 128)  147584      batch_normalization_8[0][0]      
__________________________________________________________________________________________________
re_lu_6 (ReLU)                  (None, 57, 57, 128)  0           conv2d_6[0][0]                   
__________________________________________________________________________________________________
batch_normalization_9 (BatchNor (None, 57, 57, 128)  512         re_lu_6[0][0]                    
__________________________________________________________________________________________________
conv2d_7 (Conv2D)               (None, 55, 55, 128)  147584      batch_normalization_9[0][0]      
__________________________________________________________________________________________________
re_lu_7 (ReLU)                  (None, 55, 55, 128)  0           conv2d_7[0][0]                   
__________________________________________________________________________________________________
dropout_3 (Dropout)             (None, 55, 55, 128)  0           re_lu_7[0][0]                    
__________________________________________________________________________________________________
global_average_pooling2d_1 (Glo (None, 32)           0           dropout_1[0][0]                  
__________________________________________________________________________________________________
global_average_pooling2d_2 (Glo (None, 64)           0           dropout_2[0][0]                  
__________________________________________________________________________________________________
global_average_pooling2d_3 (Glo (None, 128)          0           dropout_3[0][0]                  
__________________________________________________________________________________________________
concatenate_1 (Concatenate)     (None, 224)          0           global_average_pooling2d_1[0][0] 
                                                                 global_average_pooling2d_2[0][0] 
                                                                 global_average_pooling2d_3[0][0] 
__________________________________________________________________________________________________
batch_normalization_10 (BatchNo (None, 224)          896         concatenate_1[0][0]              
__________________________________________________________________________________________________
dense_1 (Dense)                 (None, 256)          57600       batch_normalization_10[0][0]     
__________________________________________________________________________________________________
dropout_4 (Dropout)             (None, 256)          0           dense_1[0][0]                    
__________________________________________________________________________________________________
batch_normalization_11 (BatchNo (None, 256)          1024        dropout_4[0][0]                  
__________________________________________________________________________________________________
dense_2 (Dense)                 (None, 256)          65792       batch_normalization_11[0][0]     
__________________________________________________________________________________________________
dropout_5 (Dropout)             (None, 256)          0           dense_2[0][0]                    
__________________________________________________________________________________________________
dense_3 (Dense)                 (None, 28)           7196        dropout_5[0][0]                  
__________________________________________________________________________________________________
activation_1 (Activation)       (None, 28)           0           dense_3[0][0]                    
==================================================================================================
Total params: 597,388
Trainable params: 595,268
Non-trainable params: 2,120
__________________________________________________________________________________________________
(31072,) (31072, 28)
(27964,) (27964, 28) (3108,) (3108, 28)
Epoch 1/25
Using TensorFlow backend.
…
