…
2018-11-11 00:52:25.776375: I tensorflow/stream_executor/cuda/cuda_diagnostics.cc:194] libcuda reported version is: 387.26.0
2018-11-11 00:52:25.776427: I tensorflow/stream_executor/cuda/cuda_diagnostics.cc:198] kernel reported version is: 387.26.0
2018-11-11 00:52:25.776438: I tensorflow/stream_executor/cuda/cuda_diagnostics.cc:305] kernel version seems to match DSO: 387.26.0
_________________________________________________________________
Layer (type)                 Output Shape              Param #   
=================================================================
inception_resnet_v2 (Model)  (None, 8, 8, 1536)        54336736  
_________________________________________________________________
flatten (Flatten)            (None, 98304)             0         
_________________________________________________________________
activation_203 (Activation)  (None, 98304)             0         
_________________________________________________________________
dropout (Dropout)            (None, 98304)             0         
_________________________________________________________________
dense (Dense)                (None, 1024)              100664320 
_________________________________________________________________
activation_204 (Activation)  (None, 1024)              0         
_________________________________________________________________
dropout_1 (Dropout)          (None, 1024)              0         
_________________________________________________________________
dense_1 (Dense)              (None, 28)                28700     
_________________________________________________________________
activation_205 (Activation)  (None, 28)                0         
=================================================================
Total params: 155,029,756
Trainable params: 154,969,212
Non-trainable params: 60,544
_________________________________________________________________
Epoch 1/1000
  1/100 [..............................] - ETA: 4:07:52 - loss: 5.6055 - acc: 0.0938
…
