…
2018-11-09 18:27:30.592915: W tensorflow/core/common_runtime/bfc_allocator.cc:211] Allocator (GPU_0_bfc) ran out of memory trying to allocate 2.33GiB. The caller indicates that this is not a failure, but may mean that there could be performance gains if more memory were available.
2018-11-09 18:27:30.635416: W tensorflow/core/common_runtime/bfc_allocator.cc:211] Allocator (GPU_0_bfc) ran out of memory trying to allocate 622.16MiB. The caller indicates that this is not a failure, but may mean that there could be performance gains if more memory were available.
_________________________________________________________________
Layer (type)                 Output Shape              Param #   
=================================================================
inception_resnet_v2 (Model)  (None, 8, 8, 1536)        54336736  
_________________________________________________________________
flatten (Flatten)            (None, 98304)             0         
_________________________________________________________________
activation_203 (Activation)  (None, 98304)             0         
_________________________________________________________________
dropout (Dropout)            (None, 98304)             0         
_________________________________________________________________
dense (Dense)                (None, 1024)              100664320 
_________________________________________________________________
activation_204 (Activation)  (None, 1024)              0         
_________________________________________________________________
dropout_1 (Dropout)          (None, 1024)              0         
_________________________________________________________________
dense_1 (Dense)              (None, 28)                28700     
_________________________________________________________________
activation_205 (Activation)  (None, 28)                0         
=================================================================
Total params: 155,029,756
Trainable params: 154,969,212
Non-trainable params: 60,544
_________________________________________________________________
Epoch 1/10
  1/100 [..............................] - ETA: 2:39:26 - loss: 4.8604 - acc: 0.0000e+002018-11-09 18:27:44.854002: W tensorflow/core/common_runtime/bfc_allocator.cc:267] Allocator (GPU_0_bfc) ran out of memory trying to allocate 3.55MiB.  Current allocation summary follows.
…
