…
2018-11-08 17:09:28.553616: I tensorflow/stream_executor/cuda/cuda_diagnostics.cc:194] libcuda reported version is: 387.26.0
2018-11-08 17:09:28.553713: I tensorflow/stream_executor/cuda/cuda_diagnostics.cc:198] kernel reported version is: 387.26.0
2018-11-08 17:09:28.553735: I tensorflow/stream_executor/cuda/cuda_diagnostics.cc:305] kernel version seems to match DSO: 387.26.0
min: 0.0, max: 1.0
_________________________________________________________________
Layer (type)                 Output Shape              Param #   
=================================================================
inception_resnet_v2 (Model)  (None, 8, 8, 1536)        54336736  
_________________________________________________________________
flatten_1 (Flatten)          (None, 98304)             0         
_________________________________________________________________
activation_204 (Activation)  (None, 98304)             0         
_________________________________________________________________
dropout_1 (Dropout)          (None, 98304)             0         
_________________________________________________________________
dense_1 (Dense)              (None, 1024)              100664320 
_________________________________________________________________
activation_205 (Activation)  (None, 1024)              0         
_________________________________________________________________
dropout_2 (Dropout)          (None, 1024)              0         
_________________________________________________________________
dense_2 (Dense)              (None, 28)                28700     
_________________________________________________________________
activation_206 (Activation)  (None, 28)                0         
=================================================================
Total params: 155,029,756
Trainable params: 154,969,212
Non-trainable params: 60,544
_________________________________________________________________
Epoch 1/100

  1/100 [..............................] - ETA: 1:43:14 - loss: 5.2514 - acc: 0.0000e+00
  2/100 [..............................] - ETA: 1:02:07 - loss: 5.6008 - acc: 0.1875    
…
